Chat Bot/data.pth (torch, 11882 bytes, 6 tensors)

l1.weight f4 [8, 120]
000000 07 ef c5 be f4 0f 28 3e bb 97 83 3f f5 4b 6b 3e
       -0.38658926 0.16412336 1.028068 0.22978194
000010 8f 69 a9 be fe 4e ea 3e b1 1a 1d 3f 03 69 1e bf
       -0.33088347 0.4576339 0.6136885 -0.61878985
000020 6d a5 2c bf 4b a4 39 3f d7 54 93 bd a4 50 99 be
       -0.6743992 0.72516316 -0.07193916 -0.29944336
000030 a7 72 e4 be 10 42 f8 3e 54 53 77 3f 45 e9 c6 3e
       -0.44618723 0.48487902 0.96611524 0.38849846
000040 fa 19 00 3e 28 df da 3e 15 ec 91 3e 69 5d ed be
       0.1250991 0.4274838 0.2850043 -0.4636033
000050 64 66 31 3e c0 96 cc be 10 65 5e 3e 68 c4 ec 3d
       0.17324215 -0.39958763 0.2171824 0.11560899
000060 39 7d 41 bf c8 09 09 3f 08 5b 23 3c 62 da d8 3e
       -0.755817 0.5353055 0.009970434 0.42354113
000070 d4 d2 75 3e 4a 7d 06 bf 9c 1c 92 3e 72 52 07 3f
       0.24006206 -0.52534926 0.28537452 0.52860177
000080 2c 06 2b be 9a 4e ed 3d f6 f5 d7 be 7e 99 17 3e
       -0.16701573 0.11587258 -0.4217984 0.14804646
000090 ff 95 27 3f c8 da cf 3e db 14 f5 be 3c 1e 16 3f
       0.6546325 0.40596604 -0.47867474 0.58639884
0000a0 c8 99 11 3f 2f 95 03 3f d9 4b 8c 3e 02 8f 2f 3f
       0.56875277 0.5139951 0.27401617 0.6857759
0000b0 72 63 21 3f ae 50 22 3f 8c 58 22 3f 38 f8 02 3e
       0.63042367 0.6340436 0.6341636 0.1279
0000c0 6c 06 19 3f cf da 36 bf 2d b0 5c be 73 1b 4c 3c
       0.59775424 -0.71427625 -0.2155158 0.012457716
0000d0 f2 63 cc 3e 3a fd 70 bd 1a 51 2e 3f 53 62 cc 3e
       0.39920002 -0.058835246 0.680925 0.39918765
0000e0 4a 75 9f 3e 3f 55 3b bc 69 31 55 bf 0d b5 1a 3d
       0.31144172 -0.0114338985 -0.8327852 0.03777032
0000f0 42 71 06 bd fb d3 ac bc 8e 58 8b bd 1b 25 ae be
       -0.032822855 -0.021097174 -0.06804 -0.34012684
000100 81 c8 e2 3e 6b 86 5a 3e af 80 1e 3f 6d a6 52 bf
       0.44293597 0.21340339 0.61915106 -0.82285196
000110 f0 c9 16 3e 46 4f fb 3e f9 4d af be 4f 6b e0 3d
       0.1472547 0.49083918 -0.34239176 0.109579675
000120 7a 14 9c bd b6 10 d4 3c 82 76 c8 3d 8a 82 c6 be
       -0.07621093 0.025886875 0.097882286 -0.38771468
000130 bc 2c 7a 3e 06 16 ba be a3 39 67 3f 09 0a 20 3f
       0.24431127 -0.36344928 0.9032232 0.6251531
000140 f7 60 b1 be 1d 97 02 bf a6 41 18 3f ed c0 ca 3e
       -0.3464429 -0.5101183 0.5947517 0.39600316
000150 8a 2c 00 3e e1 47 ed 3e 56 74 c3 3e 74 67 95 3d
       0.1251699 0.46343902 0.38174695 0.07295123
000160 42 a0 76 3f f6 7f 35 3f 7d 97 17 bf 94 dc b4 be
       0.96338284 0.7089838 -0.5921553 -0.35324538
000170 a4 60 7e 3e 42 55 29 3f 8d 7c 5f be cf 2f 02 3f
       0.24841553 0.6614572 -0.21824856 0.508542
000180 df d5 a4 bd 5e a3 d2 3e be b4 00 be 24 30 6e 3e
       -0.08048605 0.41140264 -0.12568948 0.23260552
000190 0f 75 bf be c5 ea 94 be 2d f0 b3 be 20 50 a5 be
       -0.37393996 -0.29085365 -0.35144177 -0.32287693
0001a0 35 e9 a2 be 28 2c f4 be 23 05 de be 4f 7a ae be
       -0.31818548 -0.4768994 -0.43363294 -0.3407769
0001b0 f2 1c a4 3e 38 df 5c 3f 93 54 0a 3f 84 2e 8a 3f
       0.32053334 0.86278105 0.540353 1.0795445
0001c0 cc 0e 2a 3f f8 77 62 3f 14 2d 46 3d 68 17 ac be
       0.6642883 0.8846431 0.048382834 -0.33611608
0001d0 29 8e 0f bf 34 93 12 be c2 2a c5 3e 8b c2 8e 3e
       -0.56076294 -0.14313966 0.38509184 0.278828
0001e0 a5 30 f7 be 55 97 93 3e 9a af f6 3e 01 ba 87 3e
       -0.482793 0.28826395 0.48180848 0.26509097
0001f0 c9 1e 43 3f 23 c6 c5 3e 06 5c 98 3e 94 d9 21 3d
       0.7621885 0.3862773 0.29757708 0.03951414
000200 4c bf 64 3f 22 b9 58 3e 39 95 33 bf 45 06 07 bf
       0.89354396 0.21164373 -0.7014957 -0.5274394
000210 fd f7 f8 be 7e bc 53 bd 1f c8 46 be fa d3 41 3f
       -0.486267 -0.051693432 -0.19412278 0.75714076
000220 4a 9b d0 be a0 c9 3c 3f b3 c2 2b be c1 70 be 3d
       -0.40743476 0.73745155 -0.1677349 0.0929885
000230 26 91 0a 3f af 79 50 3f 45 39 40 be 25 29 bc 3e
       0.5412773 0.81435674 -0.18771847 0.3675014
000240 b4 a0 27 3f c8 8e ea 3e 56 e9 06 bf 17 dd 10 3e
       0.6547959 0.45812058 -0.5269979 0.14146839
000250 05 8a 8c 3e 95 92 fc be 22 73 21 3e 93 94 27 bf
       0.2744905 -0.49330583 0.15766576 -0.6546108
000260 20 34 f7 be 92 1b 1c be 36 d7 84 be 93 81 3d 3f
       -0.48281956 -0.15244892 -0.25945443 0.7402584
000270 20 32 3a 3d 11 eb 6d 3f 60 2a f9 3d f7 cd 7d 3f
       0.04545796 0.9293681 0.121662855 0.991424
000280 78 7d fc 3e 6d e8 3c 3f 1c 36 94 3e a9 bb 2c 3f
       0.49314475 0.73792154 0.28947532 0.67473847
000290 cb f0 2f 3f 06 84 30 3f 26 5a 36 3f e0 64 7b be
       0.68726796 0.6895145 0.71231306 -0.245502
0002a0 ca d0 33 3f ab 8a cf be 16 24 1e 3e aa af 98 be
       0.7024046 -0.40535483 0.15443453 -0.2982152
0002b0 6c 0a 9b bc 5b 15 e7 bd fc 6a 84 3f 2e b0 bc 3e
       -0.018925868 -0.1128337 1.0345149 0.36853164
0002c0 37 6f ad 3e 5b f7 bb bd 26 63 55 ba 88 a3 38 3f
       0.33873913 -0.09178039 -0.00081400794 0.7212453
0002d0 5f c3 85 3e cb 91 8b bf 7c 44 a5 3d 79 f7 ad be
       0.2612562 -1.0903867 0.08069703 -0.3397787
0002e0 f4 06 f7 3e be 86 aa 3e ba 42 76 3e e1 71 2f 3f
       0.48247492 0.33305925 0.24048892 0.6853314
0002f0 15 21 32 bc 47 78 ca 3e 2f 05 12 3f 17 d6 c2 3e
       -0.010872145 0.3954489 0.5703916 0.38053963
000300 fe 6c 1f 3f ef d7 36 3b 07 19 37 3f 9c b0 17 3e
       0.62275684 0.0027899703 0.71522564 0.14813465
000310 ba ca 14 3f c9 0f 5d 3f 82 36 31 3f c8 86 67 bd
       0.58121836 0.8635221 0.692238 -0.05652502
000320 b6 05 62 3f 78 b9 75 be c2 d4 90 3e 36 bb db 3e
       0.88289964 -0.23996532 0.2828732 0.42916268
000330 ee 54 7b be 38 7d 46 be 0b d0 08 bf e0 25 fe 3e
       -0.24544117 -0.19383705 -0.5344245 0.4963827
000340 04 0b 49 be 75 c4 d4 bc d7 77 93 be 33 be d2 bc
       -0.19633108 -0.025972584 -0.28802368 -0.02572546
000350 53 0a fb 3e b0 d7 d5 3e cc fc b6 3e 13 ae 0d 3f
       0.49031314 0.4176612 0.35739744 0.5534374
000360 5a 0b cb bd 74 34 a9 3e 26 08 dd be 83 e3 8f 3e
       -0.099142745 0.3304783 -0.4317028 0.28103265
000370 db 15 17 3f 10 f1 bd 3e fd 9b 94 3d d7 f3 80 3d
       0.59017724 0.3709798 0.07256315 0.06296509
000380 5b 2a 96 3e 08 3e 67 be 57 b7 e8 be 88 79 5a 3f
       0.2932919 -0.22582257 -0.45452377 0.8534169
000390 86 f5 b6 bd 32 00 36 be ce f0 09 3f a6 2b 93 3f
       -0.08933549 -0.17773512 0.53883064 1.1497695
0003a0 da 2c 24 3e 60 a8 9f bd ef c2 bf bd fd 89 0d 3e
       0.16032735 -0.07795787 -0.093633525 0.1382217
0003b0 12 1e 55 3f 34 b5 dc be c1 30 4c 3f 96 d2 ce 3e
       0.8324901 -0.43106997 0.7976189 0.4039504
0003c0 b9 14 bb 3e d8 62 94 3f ea e1 d4 3d f4 6d 4f 3f
       0.36539248 1.1592665 0.10394652 0.8102715
0003d0 e9 b1 e3 be 60 71 c6 bd c9 7e 4e 3f 84 02 8d be
       -0.44471672 -0.09689593 0.8066221 -0.27540982
0003e0 62 6f bf be fc 7b c5 be ce 31 b7 3c 41 0b 4c 3f
       -0.37389666 -0.38571155 0.022362616 0.7970467
0003f0 28 96 c7 3e fb dc c8 3e 7f b3 ef be a4 46 00 3f
       0.38981748 0.39231095 -0.46816632 0.5010779

l1.bias f4 [8]
000000 d5 84 b3 3f 4e 3d 95 3f bb f2 0e 3f 51 65 be 3e
       1.4024912 1.1659334 0.5583913 0.37186673
000010 de 97 07 3f b2 54 67 3f db 28 25 3f 67 ae c9 3e
       0.52966106 0.9036361 0.64515465 0.3939087

l2.weight f4 [8, 8]
000000 85 29 94 bf 7d a1 72 3f 48 12 fe be ea fe 8f 3e
       -1.1575171 0.9477766 -0.49623322 0.28124171
000010 e4 b0 2b 3f 69 b1 41 3f 4b c0 e6 bc 5a d6 33 bf
       0.6706679 0.7566133 -0.028167864 -0.7024895
000020 5b 81 8e 3f 8a f3 77 3f a0 66 a8 3e 71 4c 8a bf
       1.1133226 0.96855986 0.32890797 -1.0804578
000030 6a 7a de 3e d0 f2 e4 3f 98 18 cc bf 26 0b 0f 3e
       0.4345277 1.78866 -1.5945005 0.13969097
000040 3c 06 13 bf 58 18 39 3e 0d 16 f8 3f 7e 12 fa 3f
       -0.5743139 0.18075693 1.9381729 1.9536893
000050 bc d9 90 3f 9c 7f 53 3f ea 4b 45 3e 68 5f 40 3e
       1.1316447 0.8261659 0.1926724 0.18786395
000060 8b 69 89 3f 1c f2 44 bf 96 e8 4c bf be 43 5a bf
       1.0735334 -0.7693193 -0.800424 -0.85259616
000070 af 79 35 bf 96 a2 c7 3f 02 df fd 3f 8f e8 42 3f
       -0.708888 1.5596492 1.9833682 0.76136106
000080 96 dd fd 3f 0d 44 d4 3f f2 80 f3 3e 22 27 25 3f
       1.9833248 1.6583267 0.47559315 0.64512837
000090 12 c5 9f bf 44 ff 26 bf 6f ed 5b 3f 68 50 05 bf
       -1.2482016 -0.65233254 0.8590917 -0.52075815
0000a0 bd 90 8b be dd 08 a7 3f 7e 98 40 3e 87 c1 cd bd
       -0.27258864 1.304958 0.18808171 -0.10046678
0000b0 36 b0 78 3f d9 7d ed be 8e 2d 00 3f da 24 19 bf
       0.97143877 -0.46385077 0.5006951 -0.59821856
0000c0 01 53 a6 3f 06 6d 9a 3f a1 ba 45 bf 81 5d 54 bf
       1.2994081 1.2064521 -0.772379 -0.82955176
0000d0 84 56 d7 3f ee de 66 bf 91 36 79 3e 2a e0 c8 3f
       1.6823277 -0.90183914 0.24337222 1.569341
0000e0 d2 c7 32 be 4c d1 85 3f 33 19 63 bf 58 64 3c 3f
       -0.17459038 1.0454497 -0.88710326 0.7359061
0000f0 ee b8 98 3e 00 7c c3 3f 71 f6 48 3f 75 ef a3 bf
       0.2982859 1.5272217 0.7850104 -1.2807451

l2.bias f4 [8]
000000 85 e5 bd 3d 85 67 87 3f 71 c0 1c bf fa b0 72 3f
       0.09272293 1.0578467 -0.6123114 0.94801295
000010 d8 19 0d 3f 7f 5a d5 bb 15 6a 93 3e b8 b0 ef 3e
       0.5511756 -0.006511032 0.28791872 0.46814513

l3.weight f4 [45, 8]
000000 b8 35 2b bf 6f 0a 31 3f 8c 8f 03 bf eb 3d 53 bf
       -0.66878843 0.69156545 -0.5139091 -0.82516354
000010 3d 4e 0e 3d 0a 4e 74 bd 42 6a 3e 3e 1e 07 78 be
       0.034742583 -0.059644736 0.18595222 -0.24221465
000020 62 bb 91 bf 61 6d d5 3d 1b 3d f0 bf 9a c5 5c 3e
       -1.138531 0.10421253 -1.8768648 0.21559754
000030 6c 6f 77 3f 59 b9 42 bf ad 90 ea be 25 c3 bb 3e
       0.9665439 -0.7606407 -0.45813504 0.3667232
000040 10 ef 4f be 27 98 21 3e f1 e7 8b bd 17 b9 a5 bf
       -0.20306039 0.15780698 -0.06831349 -1.294711
000050 97 ea 14 3e 8e 8a 9b 3e db b6 bc bf 94 83 a1 3e
       0.14542614 0.30379146 -1.4743303 0.315457
000060 ad 51 d2 bd 87 7d 5b be 6b 80 bc be 04 de aa 3e
       -0.10269485 -0.21434604 -0.36816725 0.3337251
000070 e2 d0 81 bf 87 8a fc bf 4c 34 ba 3d 85 79 49 3e
       -1.0141871 -1.9729775 0.09092006 0.19675262
000080 73 24 01 c0 36 a3 4d bf 0f 58 3a 3f df ed e3 be
       -2.0178497 -0.80327165 0.72790617 -0.4451742
000090 68 91 02 3f 47 21 bf bf 7e a0 f8 bf f7 a5 25 bf
       0.5100312 -1.493203 -1.9423978 -0.6470637
0000a0 f3 f6 e3 bf 15 ff a0 bf 2b 2b c4 bc 07 94 74 be
       -1.7809738 -1.2577845 -0.023946365 -0.23884593
0000b0 ba 94 de 3e 22 96 dc be da 5e e1 3d 30 d1 15 be
       0.43472844 -0.43083292 0.110044196 -0.1463058
0000c0 eb 31 0a c0 4d 0d 52 3f 60 cd 51 be 83 e2 a6 bb
       -2.1592968 0.82051545 -0.204885 -0.0050929203
0000d0 8f 2c cf 3e 40 a6 06 c0 5d d6 d4 bf 96 94 9e bb
       0.40463683 -2.103897 -1.6627918 -0.00483949
0000e0 d7 17 a0 bf a2 7c de bf c8 a8 8e bf 16 3a 0a 3f
       -1.2507275 -1.7381785 -1.1145258 0.5399488
0000f0 62 c9 4c 3f 27 69 e4 bf 43 7f 82 3e 92 5c 8a be
       0.79994786 -1.784459 0.25487718 -0.2702375
000100 3e 73 5c 3e c3 b3 36 3f d2 fe 61 bf 33 04 58 3e
       0.21528336 0.71368045 -0.8827945 0.21095352
000110 42 fb 91 bf 2d ea 99 bf e8 af 9f bf e6 5c d9 3e
       -1.1404803 -1.202459 -1.2475557 0.42453688
000120 a6 27 c2 bf 27 3c 13 3e f1 9a 72 3e 13 b3 05 3f
       -1.516835 0.14378415 0.23691918 0.5222637
000130 1e f2 c6 bf 7f e9 be bf 5e d4 f6 bf 0a b5 76 bd
       -1.5542638 -1.4915007 -1.9283559 -0.060231246
000140 61 e2 06 c0 0c 16 a9 3d e8 a7 ad be 0c 42 04 c0
       -2.107567 0.08256158 -0.33917165 -2.0665312
000150 73 7b b4 3d 74 6c a9 3e 5c 4d d8 3e 2e 6e 8f bf
       0.088126086 0.33090556 0.4224652 -1.1205499
000160 f9 6a 66 3e b9 82 f3 be ee be 0b bf 4b cc 25 3f
       0.22501744 -0.4756067 -0.5458821 0.6476485
000170 5e 3c 75 bf b2 9e 73 be 82 21 bf bf ba 96 c3 3e
       -0.9579524 -0.23791006 -1.4932101 0.38200933
000180 61 cd 75 3f 7c b8 9e bf d2 fd cc be e5 10 a0 bf
       0.9601651 -1.240005 -0.400374 -1.2505156
000190 b5 eb 29 3e 2e 1a 26 3f 5c f3 f9 be 15 d3 b7 3e
       0.16593821 0.648837 -0.4881848 0.3590323
0001a0 5c ba 88 bf 43 2b a6 bf 0a eb ac 3d 31 8a 0c 3f
       -1.0681872 -1.2981952 0.08443268 0.54898363
0001b0 50 dc 29 3f 6c fc eb bf 08 c4 8c bf e4 0d 41 bf
       0.66351795 -1.8436408 -1.0997324 -0.7541182
0001c0 99 bd 16 3e b0 86 b8 bf 8f 5a 07 3f 7a 9a 99 be
       0.14720763 -1.4416103 0.52872556 -0.3000067
0001d0 d6 c4 d6 be 4c af 4f 3e 9c bc e1 bf e0 b6 4b 3e
       -0.4194705 0.20281714 -1.7635684 0.1989398
0001e0 b8 f2 2e bf 7b c3 7d bf 9c 4d 82 3e 78 4b f9 bf
       -0.6833911 -0.99126405 0.25449836 -1.9476156
0001f0 46 16 f0 3e bf 49 e8 3e ce 9f aa bf f0 29 1c 3e
       0.46891993 0.45368764 -1.3330019 0.15250373
000200 49 36 0b c0 50 aa c8 bf 25 0c 82 3e 5a 0d 8f 3e
       -2.1751883 -1.5676975 0.2539989 0.27939874
000210 d9 93 80 bd 54 6a 46 3e 7f d3 8e bf 7b cb c9 3e
       -0.062782 0.19376498 -1.1158293 0.39413056
000220 c5 7d c2 bf 9e 6c 9d bf 94 98 c5 3e ab 00 dc bf
       -1.5194632 -1.2298772 0.3859297 -1.7187704
000230 c4 e5 3d 3f 82 bd f0 be 3d c8 44 be d1 2c 51 bf
       0.7417872 -0.47019583 -0.1921701 -0.8170901
000240 bb ad d0 3e 21 ce bd bf f5 86 9b be 90 12 65 bd
       0.40757546 -1.482853 -0.30376402 -0.055925906
000250 3c 99 0c 3f ca a6 31 be d2 d4 98 bf 80 e8 bf 3e
       0.5492132 -0.17348781 -1.1939948 0.3748207
000260 e4 a8 c1 be 04 fa 8a bf dd 2a 2a 3e 80 46 c9 bf
       -0.37824166 -1.0857549 0.16617914 -1.572464
000270 f9 e5 26 bd a2 1e b7 3e 86 c0 5d 3e c7 0d a5 be
       -0.040746663 0.35765558 0.21655473 -0.32237074
000280 0b 8d 04 bf b8 81 34 bf 65 61 96 bf 84 31 47 bd
       -0.51777714 -0.70510435 -1.1748472 -0.048631206
000290 a2 0a 7a 3e ff 9b b0 3e 49 1c 95 3e 15 13 8a bc
       0.24418119 0.34494016 0.29123142 -0.016854802
0002a0 69 05 8f bf 72 61 87 be a8 52 0b bf 67 de 84 3e
       -1.1173526 -0.26441532 -0.54423 0.2595093
0002b0 8e f3 04 3f f9 02 10 c0 19 88 9e 3e 4f d7 b9 bf
       0.51934135 -2.2501814 0.3096321 -1.4518832
0002c0 0a 3d 04 c0 0f 9e f5 3e c3 06 8c 3e 57 b5 d1 bf
       -2.0662255 0.47972152 0.2734891 -1.6383466
0002d0 51 e4 ac bf 54 59 a8 be 84 4e c0 3e f5 a8 d0 bf
       -1.3507177 -0.32880652 0.37559903 -1.6301562
0002e0 f9 99 10 c0 c4 7f 11 bc f1 1d cb 3c 03 9e 0c 3f
       -2.2593977 -0.008880559 0.02479455 0.54928607
0002f0 0f 79 4b bf 99 3b 18 c0 79 f9 ba bc f9 2d dd bf
       -0.79481596 -2.3786376 -0.022824036 -1.7279655
000300 d6 c2 88 bf d1 6c 7b bf c1 fd 2d 3f da c1 20 bf
       -1.0684459 -0.98212916 0.6796532 -0.62795794
000310 c2 e0 b2 bf ea 91 e4 bf e7 3d b7 3e 94 ab 62 bf
       -1.3974841 -1.785703 0.35789415 -0.8854306
000320 c1 a3 fc bf 4b 20 7d be 40 d0 34 3e 8e c5 57 be
       -1.9737474 -0.2471935 0.17657566 -0.21071455
000330 97 20 0d bf 81 75 b0 be 28 92 af 3d 00 a0 c5 bd
       -0.55127853 -0.34464648 0.08572799 -0.09649658
000340 31 d1 7b bf 61 9e f9 3e 50 79 20 be a2 08 d5 be
       -0.98366076 0.48753646 -0.15671277 -0.4160815
000350 15 e5 b8 bf f6 4a 0c c0 49 03 ce 3e 66 58 da bb
       -1.444491 -2.1920753 0.4023688 -0.00666337
000360 8a 21 84 bf 4a a4 b9 3e d8 1e f8 3e 64 71 82 bf
       -1.0322735 0.36258155 0.48461032 -1.0190854
000370 f4 2a 89 bf 19 05 3e bf 8a 56 a4 bf 78 28 c9 3d
       -1.0716233 -0.7422653 -1.283891 0.09822172
000380 12 20 2d 3f 89 a5 91 3e 26 52 31 bf 2b bd fd be
       0.6762706 0.28446606 -0.69265974 -0.49558386
000390 fe 12 55 bf 4c 40 2b 3e 34 b3 b6 be 6c d8 2c 3e
       -0.83232105 0.16723746 -0.35683596 0.16879433
0003a0 fa 0c 3d bf 25 cf 3b bf d9 f0 34 bd ff ed d9 3e
       -0.73847926 -0.7336295 -0.044175003 0.4256439
0003b0 3c 14 72 3e 01 21 c7 bf d6 f1 0f c0 7c 1a ea 3e
       0.23640531 -1.5556947 -2.2491355 0.4572333
0003c0 7b 55 07 c0 fd 49 7e be 01 c5 8d bf 66 df 17 3f
       -2.1145923 -0.24832912 -1.1075746 0.59325254
0003d0 24 80 15 be b7 07 11 c0 9e 6f 93 3e 8f 29 45 3d
       -0.14599663 -2.2660959 0.28796095 0.048135336
0003e0 20 47 af be d0 ca 1c be cd 5c 30 be a7 32 66 bd
       -0.34233952 -0.15311742 -0.172229 -0.05620065
0003f0 44 91 95 bb e2 33 14 bf 19 c1 0a bf ec ec b6 3e
       -0.004564436 -0.57891667 -0.54200894 0.35727632

l3.bias f4 [45]
000000 17 1c b7 3d 79 26 e8 bd 06 6e 96 bc 51 d1 c4 be
       0.089409046 -0.11335463 -0.01836301 -0.38440946
000010 3f 27 1d 3f 39 0b 3c be d3 21 13 3f bc e5 c2 be
       0.6138801 -0.18363656 0.57473487 -0.38065898
000020 d7 ad 59 3e e9 51 49 3e 3f f9 0b 3c 37 b6 17 be
       0.21257721 0.19660152 0.008543312 -0.14815603
000030 32 45 6d 3e c8 73 0f be ac b1 47 be 02 68 99 be
       0.23170927 -0.14009011 -0.1950137 -0.29962164
000040 88 44 0e be 18 db df 3c b3 ac 35 3e d7 b9 64 be
       -0.1389333 0.027326152 0.17741661 -0.22336517
000050 56 66 b7 be 82 fd 27 3e 2a e3 43 3e 76 a0 b8 3e
       -0.35820264 0.164053 0.19129625 0.36059922
000060 a0 90 aa bd 2d 65 39 bf 63 b3 61 3d 33 ea a8 3e
       -0.08328366 -0.72420007 0.055102717 0.3299118
000070 b1 03 98 be 8c d3 44 be af e2 18 bd da e3 87 be
       -0.29690316 -0.19221324 -0.037325557 -0.26541024
000080 dc 5e 14 bd 3a 89 83 3e 72 f9 18 3f de ce e3 3d
       -0.036223277 0.25690633 0.59755623 0.11123441
000090 ef e3 0e be 38 9e 05 be c5 51 83 3e 01 45 7c be
       -0.13954137 -0.13048637 0.25648323 -0.24635698
0000a0 d2 17 ce 3c 5f 10 a0 bd 27 aa dc bd 12 65 ad 3e
       0.025157843 -0.078156225 -0.107746415 0.33866173
0000b0 22 e7 a5 3e
       0.32402903
